MyModels/default_model/default_model/NetWork.pth (torch, 239462 bytes, 10 tensors)

weight f4 [128, 41]
0.10111706 -0.08561517 -0.06934725 -0.019584002 -0.057861943 -0.015846604 -0.019186154 0.101699926
0.13963474 0.068784855 0.1330729 -0.12933737 0.13197906 0.08502068 -0.13237761 0.035985142
-0.026011758 -0.067096464 0.07837474 0.039705865 -0.05872299 -0.12832792 0.13666077 -0.13136159
0.05389958 0.005402862 0.14574343 0.09247138 -0.054736454 0.12897117 -0.02576469 -0.038704332
-0.1040479 -0.121427976 -0.07070959 0.031897597 -0.15396804 0.110023186 -0.030009778 -0.02476531
-0.079040304 0.14908929 -0.1394678 -0.0644618 -0.16899641 -0.042178754 0.09610226 0.092883974
0.14521474 0.11400737 -0.12842478 -0.15124092 0.12267919 0.15155089 -0.13266362 0.10052436
-0.13384256 -0.022323722 -0.09664214 -0.06533336 0.024960522 -0.1290503 0.03685449 0.13713181
-0.10504302 0.13632905 -0.11112 -0.0408023 0.09414794 -0.043548513 -0.042003892 -0.15225402
0.14320523 0.09635673 0.083306976 -0.029707592 -0.04779754 0.03230972 -0.0748238 0.10402045
-0.123491876 -0.019650366 0.007465987 -0.073552795 0.051346816 0.14440107 0.12043725 0.09094523
0.11707148 0.14757513 0.087519675 0.080166385 -0.013236319 0.0030331605 -0.09583491 -0.10254271
0.08550263 -0.056557532 -0.16350758 0.01140837 0.018859845 0.013994927 0.009922301 0.034675572
-0.06648612 0.044949103 0.050222293 0.10022549 0.011106749 0.122278094 -0.19908677 0.16315885
0.15257722 -0.03252636 -0.06991205 0.13376063 0.109292515 -0.004255448 -0.19925202 -0.0020210878
0.035255834 -0.14158623 -0.019814117 0.05240942 0.03565157 0.05707687 0.14033619 -0.03455093
0.047577884 0.17314215 0.013612533 -0.059596427 0.06349374 -0.10572722 0.03796925 -0.08929798
0.08841151 0.021261718 0.1277094 0.007861166 0.06515763 0.117954485 0.04830632 -0.013579662
0.09963352 -0.101724766 0.07996951 0.08751895 0.1354698 -0.14567567 0.0197711 0.07122298
0.061220482 -0.031707 -0.045169026 0.1631382 0.093172304 -0.008179236 -0.17457004 -0.15573223
0.032684363 0.08064052 0.13056041 -0.06706352 0.13357644 0.1035577 0.10687517 -0.029111754
0.017889323 0.067235395 0.1403456 0.06587023 0.15407711 -0.04652988 0.0863066 0.15889259
-0.050280407 0.14288826 -0.015382375 -0.15226021 -0.11817342 -0.1076108 0.073003896 0.030231167
0.061167248 -0.056441143 0.14696507 0.021242231 -0.1177338 -0.079371154 0.0060901213 0.0061422177
-0.118176006 -0.12819926 0.0573115 0.053514842 -0.03469394 -0.0357109 0.038103055 -0.07504342
-0.020627163 -0.13742355 0.032078784 -0.019443616 -0.08697306 -0.020937085 -0.012489767 0.023481289
-0.09490569 0.081490226 0.031528145 -0.027927095 0.14695153 -0.015700033 0.035400715 0.14727274
0.073790826 0.1289254 0.13854034 0.0793291 -0.04682729 -0.0072532324 -0.09470403 0.08350457
-0.07357107 0.023926236 0.098305255 0.11743776 -0.017718924 -0.06131926 -0.13467349 -0.01146058
0.039994854 0.11433861 -0.11837091 -0.06305168 -0.013930131 -0.12059079 -0.018445943 0.05044262
-0.07584633 -0.08230035 0.055199362 0.07997396 -0.14850591 0.097932205 0.08804886 -0.09780415
-0.028204987 -0.11314991 0.13241999 -0.09024258 -0.03938657 -0.10481346 -0.118445255 -0.047903962
00000000: 7616 cf3d 0257 afbd ee05 8ebd a16e a0bc
00000010: a500 6dbd bdd0 81bc 482c 9dbc 0d48 d03d
00000020: 69fc 0e3e 13df 8c3d 4344 083e 0471 04be
00000030: 8525 073e 531f ae3d ff8d 07be 2865 133d
00000040: 9c16 d5bc df69 89bd f082 a03d 9ea2 223d
00000050: 8587 70bd 6568 03be cdf0 0b3e a783 06be
00000060: cec5 5c3d 7e0a b13b c43d 153e a361 bd3d
00000070: 5533 60bd 0511 043e 7910 d3bc 6f88 1ebd
00000080: 1117 d5bd 3baf f8bd 31d0 90bd 0ea7 023d
00000090: cca9 1dbe d653 e13d 11d7 f5bc 9fe0 cabc
000000a0: e2df a1bd ddaa 183e a6d0 0ebe 8c04 84bd
000000b0: 650d 2dbe a1c3 2cbd 43d1 c43d f439 be3d
000000c0: 2cb3 143e b27c e93d c981 03be e6de 1abe
000000d0: 3a3f fb3d 2830 1b3e f9d8 07be b7df cd3d
000000e0: 060e 09be 3de0 b6bc 50ec c5bd 7fcd 85bd
000000f0: 027a cc3c c325 04be bcf4 163d 486c 0c3e
00000100: cb20 d7bd d899 0b3e e292 e3bd 5020 27bd
00000110: a3d0 c03d ed5f 32bd 460c 2cbd 7ae8 1bbe
00000120: 64a4 123e ad56 c53d d99c aa3d 565d f3bc
00000130: 5ac7 43bd 3257 043d 383d 99bd ac08 d53d
00000140: 4fe9 fcbd cef9 a0bc 3da5 f43b d9a2 96bd
00000150: 0a51 523d e0dd 133e cea7 f63d 7e41 ba3d
00000160: 2cc3 ef3d ef1d 173e 843d b33d 462e a43d
00000170: 25dd 58bc fdc7 463b 1845 c4bd ea01 d2bd
00000180: 011c af3d dfa8 67bd 886e 27be 2cea 3a3c
00000190: f67f 9a3c fa4a 653c 2691 223c f907 0e3d
000001a0: e029 88bd 8d1c 383d e4b5 4d3d 0643 cd3d
000001b0: 15f9 353c f06c fa3d 67dd 4bbe 1d13 273e
000001c0: 343d 1c3e 5c3a 05bd 0d2e 8fbd 8cf8 083e
000001d0: c1d4 df3d 4971 8bbb b908 4cbe 3a74 04bb
000001e0: 6c68 103d fbfb 10be 3751 a2bc 43ab 563d
000001f0: 6107 123d 70c9 693d 4ab4 0f3e 4785 0dbd
00000200: 07e1 423d 2d4c 313e 1a07 5f3c 621b 74bd
00000210: 0209 823d 8387 d8bd a585 1b3d dce1 b6bd
00000220: 1811 b53d 0e2d ae3c 41c6 023e 1fcc 003c
00000230: 5d71 853d 1f92 f13d d9dc 453d 3b7d 5ebc
00000240: a90c cc3d 1355 d0bd 0ec7 a33d 233d b33d
00000250: 98b8 0a3e 012c 15be 00f7 a13c 5bdd 913d
00000260: 54c2 7a3d 33df 01bd 2803 39bd b30d 273e
00000270: 1fd1 be3d 3402 06bc 7dc2 32be 4578 1fbe
00000280: 0ae0 053d db26 a53d a1b1 053e 9958 89bd
00000290: 43c8 083e 0f16 d43d 5ee1 da3d c67b eebc
000002a0: a18c 923c b6b2 893d c2b6 0f3e f9e6 863d
000002b0: 64c6 1d3e 1e96 3ebd 84c1 b03d bdb4 223e
000002c0: d4f2 4dbd 4d51 123e 5b06 7cbc 1aea 1bbe
000002d0: e804 f2bd 0d63 dcbd 1183 953d 5aa7 f73c
000002e0: 828a 7a3d d42e 67bd 037e 163e 3004 ae3c
000002f0: 6b1e f1bd 588d a2bd a48f c73b a844 c93b
00000300: 4306 f2bd ab46 03be 77bf 6a3d 6132 5b3d
00000310: 3c1b 0ebd 9845 12bd f311 1c3d 5db0 99bd
00000320: 4cfa a8bc c2b8 0cbe 0b65 033d 3848 9fbc
00000330: ef1e b2bd 4084 abbc e1a1 4cbc d55b c03c
00000340: ea5d c2bd 59e4 a63d a823 013d 5dc7 e4bc
00000350: 767a 163e 5b9d 80bc 5700 113d aace 163e
00000360: a51f 973d 0505 043e 85dd 0d3e 4c77 a23d
00000370: f9cd 3fbd 86ac edbb 30f4 c1bd 7204 ab3d
00000380: 6eac 96bd f400 c43c 4454 c93d 3583 f03d
00000390: 4727 91bc e829 7bbd d9e7 09be 28c5 3bbc
000003a0: a5d1 233d 5c2a ea3d 736c f2bd 3d21 81bd
000003b0: 343b 64bc 4ef8 f6bd f21b 97bc ec9c 4e3d
000003c0: 5255 9bbd 168d a8bd ba18 623d 63c9 a33d
000003d0: ef11 18be ae90 c83d f652 b43d 8b4d c8bd
000003e0: 250e e7bc 24bb e7bd 1b99 073e 1ad1 b8bd
000003f0: d053 21bd 70a8 d6bd 6d93 f2bd f236 44bd

bias f4 [128]
-0.13075739 -0.11384201 0.06250777 -0.004016877 -0.07274493 -0.025541097 0.088054135 0.056671742
-0.08120516 0.009641416 -0.018245125 0.07379059 -0.13233896 -0.14981507 -0.040339544 0.14819105
-0.119807765 -0.026579684 0.08749377 0.0080417115 0.019475304 -0.0047531417 0.05807292 0.05951788
0.10829819 -0.004522076 -0.055459168 -0.14740498 -0.091271006 7.006219e-05 0.12892035 -0.03232895
-0.14362347 0.13979399 -0.07203491 -0.06490845 -0.09833979 0.1429008 0.052596413 -0.1038025
0.02343105 -0.03197318 -0.01999625 -0.14697194 -0.009953094 0.10210123 0.07413627 -0.048536904
0.10154856 0.07380994 -0.041365765 -0.14918181 -0.11800947 -0.15442224 -0.019901512 -0.13391203
-0.036575258 -0.010637352 0.06983025 0.14255981 0.05555388 0.09875285 -0.15124126 -0.093588136
0.1282817 0.07284481 0.051677715 0.12765607 0.14440301 -0.13991101 -0.107172064 -0.0621523
-0.116768286 -0.07691612 0.14835402 -0.0037321781 -0.15605171 0.05258038 0.07374862 0.024423886
0.0025777987 -0.016972147 0.12905443 0.099805064 0.029354589 -0.04661411 0.14404255 -0.08627714
0.03596139 0.008980824 -0.09702745 0.1210169 0.057662185 -0.050755735 -0.016175488 -0.12143724
0.08280876 0.10992602 -0.09682543 -0.044977956 -0.05845528 0.107449956 0.11252754 -0.15332246
-0.054139193 0.026853414 0.07928125 0.017724292 0.11889791 0.00445869 -0.13163537 -0.11516231
0.03618906 0.050726935 0.09545951 -0.101071544 0.06982896 -0.1514121 -0.018089768 0.13150102
0.12383622 -0.061763432 -0.07067494 0.07167206 -0.08068451 0.06902849 -0.008119245 -0.09707289
00000000: 44e5 05be 0026 e9bd 1304 803d 02a0 83bb
00000010: 4bfb 94bd 903b d1bc ba55 b43d a120 683d
00000020: e44e a6bd 08f7 1d3c cd76 95bc 851f 973d
00000030: dd83 07be 1f69 19be 143b 25bd 65bf 173e
00000040: c65d f5bd a3bd d9bc ef2f b33d 62c1 033c
00000050: ac8a 9f3c 3ec0 9bbb dfdd 6d3d 05c9 733d
00000060: 71cb dd3d ec2d 94bb 2729 63bd 55f1 16be
00000070: 4bec babd 5aee 9238 b203 043e 5c6b 04bd
00000080: 0812 13be 2826 0f3e 0a87 93bd b9ee 84bd
00000090: 5f66 c9bd 9654 123e 566f 573d 6896 d4bd
000000a0: 79f2 bf3c 4ff6 02bd 2dcf a3bc d07f 16be
000000b0: 4d12 23bc 731a d13d c2d4 973d a2ce 46bd
000000c0: b1f8 cf3d aa29 973d 266f 29bd 1ec3 18be
000000d0: f3ae f1bd dd20 1ebe 7f08 a3bc 3c20 09be
000000e0: f0cf 15bd 4a48 2ebc 2a03 8f3d 33fb 113e
000000f0: 778c 633d ef3e ca3d fdde 1abe 23ab bfbd
00000100: 475c 033e a92f 953d 03ac 533d 46b8 023e
00000110: 62de 133e d544 0fbe 077d dbbd 6993 7ebd
00000120: 3624 efbd 3386 9dbd 1eea 173e 8f97 74bb
00000130: 05cc 1fbe 865e 573d 8409 973d 9a14 c83c
00000140: 49f0 283b 2c09 8bbc d826 043e 9966 cc3d
00000150: 0979 f03c 70ee 3ebd e47f 133e 12b2 b0bd
00000160: 404c 133d 4e24 133c 54b6 c6bd b5d7 f73d
00000170: 2f2f 6c3d 3fe5 4fbd 7582 84bc 16b4 f8bd
00000180: a497 a93d e520 e13d 694c c6bd ce3a 38bd
00000190: ce6e 6fbd b90e dc3d d774 e63d 9000 1dbe
000001a0: 0fc1 5dbd b1fb db3c 355e a23d 8932 913c
000001b0: bf80 f33d 341a 923b 6ccb 06be 38da ebbd
000001c0: fb3a 143d 0cc7 4f3d 4780 c33d 99fe cebd
000001d0: 7c02 8f3d c60b 1bbe fe30 94bc 34a8 063e
000001e0: d89d fd3d a7fb 7cbd 06be 90bd cdc8 923d
000001f0: ec3d a5bd cf5e 8d3d 9506 05bc 27ce c6bd

weight f4 [128, 128]
-0.033700623 0.035870668 0.053238876 -0.079023644 -0.020347279 -0.023118403 -0.077429004 -0.030871391
-0.060978122 0.05431539 0.03507716 0.04721747 0.037440978 0.022748066 -0.01568198 0.085554704
0.051418744 0.021038916 0.03273782 -0.07539804 -0.0911361 -0.055114593 -0.05543146 0.053902764
0.0034393813 0.086330414 0.03650467 0.042958766 -0.036335457 0.03717872 0.06238012 -0.003051142
-0.021793438 0.058260866 0.08001136 0.0064433296 0.01723804 -0.06943873 -0.05106281 0.08663884
-0.0757437 -0.010014646 -0.06885876 0.020933082 -0.031483125 0.0143041825 0.031799324 0.03871122
0.010660862 -0.07748901 0.013499901 -0.03662163 -0.042899325 -0.04094248 -0.012492568 0.030110925
-0.042923916 0.076728076 -0.052155744 -0.008538983 0.043030363 0.057732455 -0.0779822 -0.065597184
-0.07261792 0.06316791 -0.015872227 0.02777076 -2.8996219e-05 -0.03411427 -0.057985913 0.025551183
0.086717814 -0.05204196 0.052379362 0.026376886 0.076589495 0.057745688 -0.07002498 -0.023840422
0.059158243 0.030641653 -0.06982885 -0.08527765 -0.078410916 -0.02172357 -0.03490702 -0.062223442
-0.04666402 -0.064993896 -0.06823191 0.016433235 0.024918864 -0.034602035 0.02036414 -0.029177014
0.06615472 -0.046974376 0.071754724 -0.05418337 -0.030713294 -0.0011345373 -0.046324592 -0.00436286
0.056113105 0.009095487 0.01639348 0.025729049 -0.07879822 0.07108732 9.005188e-05 0.05335586
-0.020122899 -0.08450471 -0.04688244 0.07754157 -0.014084032 0.053625055 -0.0793925 -0.07329359
0.0023484244 0.0020818105 -0.047282636 0.034006998 0.06682029 -0.079964586 0.016248614 -0.08250482
-0.0018576159 -0.089347266 0.066586554 -0.05920554 -0.077844895 -0.006680041 0.02109009 -0.02039724
0.051192757 -0.06392415 -0.045548834 -0.060171492 -0.0801097 -0.008298556 0.06008106 -0.06626201
-0.06843481 0.059982337 0.024823079 0.056992013 -0.009434968 -0.035043992 0.059102256 0.038514096
-0.06713664 -0.035926566 0.026427867 0.05556335 0.035436988 0.0067583746 0.07950469 0.051201005
-0.026203651 0.021198452 0.051342685 0.02782415 0.05804282 0.034873813 -0.048674587 0.048849385
-0.07745602 -0.008735158 0.05914845 0.030646442 -0.020752978 0.032623664 -0.05080313 -0.002981318
-0.0012970181 0.018712 -0.08517277 0.00790125 -0.086083025 0.059268564 -0.08190557 -0.048372306
-0.06519437 0.0651716 0.08027806 -0.024760606 -0.014737469 0.06522523 -0.042391993 0.049708564
-0.0019706686 -0.08028282 0.025825623 0.046532966 0.0623918 0.056326345 -0.024837308 0.06939468
-0.053815305 0.03345114 -0.050839372 0.049363744 -0.049211334 -0.023520755 -0.0636413 -0.059527036
0.03217127 -0.06819949 0.052293036 0.059049815 -0.037068047 -0.022525769 -0.08300309 -0.033914592
0.08324462 -0.036231074 -0.05957702 -0.08870757 0.028444868 0.04084548 0.08342847 -0.024315206
-0.010814176 0.009110667 -0.0039431923 -0.061610233 0.05277585 -0.07084486 0.027519617 -0.059573416
-0.010472648 0.078874595 0.086869076 -0.021284692 0.06564924 -0.080548644 -0.07001797 0.06299817
-0.005335803 0.03382381 -0.05631961 -0.019884989 0.059628047 -0.008286136 -0.02495725 -0.08020284
-0.069681816 0.03833504 0.03467687 0.021181006 0.054113667 0.019224424 -0.0651716 0.06556487
00000000: aa09 0abd 1fed 123d 0211 5a3d 26d7 a1bd
00000010: 56af a6bc ce62 bdbc 1993 9ebd 00e6 fcbc
00000020: 32c4 79bd d079 5e3d 11ad 0f3d 1b67 413d
00000030: b65b 193d 275a ba3c 7f77 80bc 4e37 af3d
00000040: 769c 523d ce59 ac3c 1818 063d 4a6a 9abd
00000050: 90a5 babd d7bf 61bd 190c 63bd 25c9 5c3d
00000060: 3e67 613b 00ce b03d ec85 153d 88f5 2f3d
00000070: 7dd4 14bd b748 183d 4c82 7f3d abf5 47bb
00000080: 2788 b2bc f2a2 6e3d ffdc a33d 9122 d33b
00000090: ca36 8d3c e535 8ebd 3d27 51bd b46f b13d
000000a0: 831f 9bbd 7814 24bc d205 8dbd db7b ab3c
000000b0: 73f4 00bd 175c 6a3c 0240 023d a88f 1e3d
000000c0: e5aa 2e3c 8fb2 9ebd b02e 5d3c 9000 16bd
000000d0: 34b7 2fbd 4db3 27bd a1ad 4cbc 30ab f63c
000000e0: fdd0 2fbd 9c23 9d3d 43a1 55bd 17e7 0bbc
000000f0: 9b40 303d de78 6c3d 22b5 9fbd d157 86bd
00000100: b4b8 94bd 2d5e 813d 7906 82bc 817f e33c
00000110: e83c f3b7 68bb 0bbd a382 6dbd b750 d13c
00000120: 1c99 b13d f329 55bd be8b 563d 5714 d83c
00000130: f4da 9c3d be86 6c3d 4269 8fbd fd4c c3bc
00000140: ea4f 723d 3404 fb3c 6e02 8fbd 0ca6 aebd
00000150: e795 a0bd a1f5 b1bc aafa 0ebd 02de 7ebd
00000160: c522 3fbd 851b 85bd 2cbd 8bbd fe9e 863c
00000170: a522 cc3c ddba 0dbd b2d2 a63c a204 efbc
00000180: 207c 873d 3468 40bd 24f4 923d 62ef 5dbd
00000190: 729a fbbc c1b4 94ba dbbe 3dbd 53f6 8ebb
000001a0: dbd6 653d 3d05 153c 9f4b 863c bac5 d23c
000001b0: f660 a1bd 3b96 913d 3cda bc38 ad8b 5a3d
000001c0: c7d8 a4bc ce10 adbd cd07 40bd 1dce 9e3d
000001d0: b6c0 66bc f2a5 5b3d 8998 a2bd f31a 96bd
000001e0: 06e8 193b fc6e 083b 70ab 41bd ec4a 0b3d
000001f0: 14d9 883d 79c4 a3bd d01b 853c 49f8 a8bd
00000200: 3f7b f3ba b3fb b6bd 885e 883d 8281 72bd
00000210: 256d 9fbd 3fe4 dabb 20c5 ac3c 1d18 a7bc
00000220: 7faf 513d aaea 82bd 6a91 3abd 6276 76bd
00000230: 8e10 a4bd abf6 07bc 8f17 763d 60b4 87bd
00000240: 8d27 8cbd 0ab0 753d c559 cb3c 7570 693d
00000250: 2095 1abc 4a8a 0fbd 3515 723d f5c0 1d3d
00000260: ef7e 89bd bc27 13bd 417f d83c 6596 633d
00000270: 6026 113d 5b75 dd3b 5bd3 a23d 25b8 513d
00000280: 0aa9 d6bc 60a8 ad3c b54c 523d 79ef e33c
00000290: 4fbe 6d3d d8d7 0e3d 015f 47bd 4b16 483d
000002a0: 43a1 9ebd e81d 0fbc a545 723d 3f0e fb3c
000002b0: 2602 aabc 64a0 053d f116 50bd 3762 43bb
000002c0: b500 aaba e949 993c 106f aebd 3f74 013c
000002d0: 4c4c b0bd 98c3 723d 1cbe a7bd 0a22 46bd
000002e0: a084 85bd b078 853d d368 a43d c1d6 cabc
000002f0: 6d75 71bc ce94 853d 3aa3 2dbd 359b 4b3d
00000300: 5526 01bb 526b a4bd 4290 d33c 5a99 3e3d
00000310: 8b8e 7f3d 74b6 663d 9c77 cbbc cc1e 8e3d
00000320: 706d 5cbd 1004 093d f23c 50bd a331 4a3d
00000330: d391 49bd 99ae c0bc 5f56 82bd 9fd2 73bd
00000340: 06c6 033d 2dac 8bbd 3931 563d 38de 713d
00000350: aad4 17bd f687 b8bc 86fd a9bd 07ea 0abd
00000360: 287c aa3d 0967 14bd 0907 74bd 51ac b5bd
00000370: 3605 e93c 974d 273d 8cdc aa3d af30 c7bc
00000380: f12d 31bc e844 153c e535 81bb 035b 7cbd
00000390: 7d2b 583d 1c17 91bd d270 e13c 4103 74bd
000003a0: 7895 2bbc 0189 a13d 6ae8 b13d 3c5d aebc
000003b0: 1c73 863d b0f6 a4bd 9565 8fbd 2f05 813d
000003c0: f6d7 aebb d68a 0a3d 64af 66bd d8e5 a2bc
000003d0: 8a3c 743d 93c2 07bc 2673 ccbc 6341 a4bd
000003e0: 57b5 8ebd 3405 1d3d 5509 0e3d ca83 ad3c
000003f0: 4ba6 5d3d 8a7c 9d3c b078 85bd e046 863d

bias f4 [128]
-0.016812075 -0.0074359183 -0.076578945 -0.03099606 0.0745533 -0.03925012 0.042783357 -0.004698973
0.03768411 0.04408913 0.07230176 0.05261889 -0.05994276 0.06459522 -0.004281574 0.026060687
0.023968317 -0.020524623 -0.06113722 0.00083059724 0.062132906 -0.050161645 0.069854684 0.08710187
0.06608252 0.05412322 0.019639913 -0.016717188 -0.05042529 -0.061328355 0.08158999 0.033578444
0.07031253 -0.08773787 0.08386475 -0.084273934 0.037759114 0.0062526576 0.012748798 0.075123176
-0.005979428 -0.05477365 0.012188784 -0.07040306 0.0456127 -0.02931347 0.07463215 -0.02732588
0.060430698 -0.041954897 0.008529805 0.05894031 0.040001605 -0.080423005 0.029140588 -0.017484581
-0.036226958 -0.012539495 0.08493543 0.052813098 -0.08798039 -0.034077242 -0.08268536 -0.030487664
-0.007839396 -0.011986319 0.013345573 -0.012992789 0.011392246 -0.013222275 -0.0026997263 -0.006994861
-0.031576402 0.02119513 0.03245518 0.060281243 -0.07014177 -0.031119473 0.05674538 0.030477729
0.055207927 -0.0062547275 -0.027955675 -0.045212276 -0.016096678 0.08477398 0.004617442 -0.048569594
-0.08799336 0.009515758 -0.014041392 -0.06446596 -0.061485313 -0.016041735 -0.03378031 0.047390603
-0.033535767 -0.043654546 -0.05906455 -0.06646857 0.01446877 0.041718777 0.026846608 0.02915423
-0.07292782 -0.0721117 0.08696833 -0.023910547 0.07222053 0.06869276 -0.05744063 -0.04995924
-0.045259397 0.006835819 0.029304888 0.028070968 0.022441206 -0.059909295 -0.0019940946 0.07380338
-0.07124197 0.025301984 0.05752828 -0.07309263 0.010519389 -0.058969755 0.08307674 0.0540925
00000000: 7ab9 89bc 01a9 f3bb 6cd5 9cbd 73eb fdbc
00000010: 67af 983d bcc4 20bd 9a3d 2f3d d8f9 99bb
00000020: a75a 1a3d ce96 343d f212 943d e886 573d
00000030: 8a86 75bd 804a 843d 724c 8cbb 397d d53c
00000040: 3459 c43c 4123 a8bc 066b 7abd 70bc 593a
00000050: 137f 7e3d 4c76 4dbd f90f 8f3d 7762 b23d
00000060: 4656 873d 4fb0 5d3d e2e3 a03c 7cf2 88bc
00000070: c08a 4ebd 7133 7bbd a718 a73d 8d89 093d
00000080: 0400 903d eaaf b3bd 48c1 ab3d d097 acbd
00000090: 4da9 1a3d 18e3 cc3b 56e0 503c 2eda 993d
000000a0: 14ef c3bb 565a 60bd 77b3 473c 7b2f 90bd
000000b0: 62d4 3a3d cd22 f0bc bed8 983d 86da dfbc
000000c0: 2e86 773d e6d8 2bbd 98c0 0b3c 656b 713d
000000d0: b9d8 233d d1b4 a4bd 3eb8 ee3c d33b 8fbc
000000e0: b862 14bd 7472 4dbc a0f2 ad3d 8c52 583d
000000f0: 102f b4bd 9494 0bbd f156 a9bd 44c1 f9bc
00000100: cf70 00bc 4462 44bc 64a7 5a3c b5df 54bc
00000110: 8ba6 3a3c 3ea2 58bc e4ed 30bb 2635 e5bb
00000120: 4256 01bd 69a1 ad3c b9ef 043d 77e9 763d
00000130: 7da6 8fbd 44ee febc d86d 683d 6eac f93c
00000140: b521 623d 75f4 ccbb 4d03 e5bc 8230 39bd
00000150: 2edd 83bc fb9d ad3d e94d 973b e9f0 46bd
00000160: dd35 b4bd fbe7 1b3c de0d 66bc bb06 84bd
00000170: 06d8 7bbd f569 83bc 395d 0abd a61c 423d
00000180: cd5c 09bd 1ccf 32bd abed 71bd ac20 88bd
00000190: 6b0e 6d3c 4fe1 2a3d 6bed db3c dad4 ee3c
000001a0: 2e5b 95bd 4daf 93bd 741c b23d 0de0 c3bc
000001b0: 5be8 933d caae 8c3d de46 6bbd 0fa2 4cbd
000001c0: eb61 39bd 02ff df3b ce10 f03c 16f5 e53c
000001d0: 9fd6 b73c 7363 75bd 5baf 02bb 3a26 973d
000001e0: 4fe7 91bd 1b46 cf3c c6a2 6b3d 97b1 95bd
000001f0: 8459 2c3c 458a 71bd 2324 aa3d 1990 5d3d

weight f4 [128, 128]
-0.03226345 0.03978213 -0.05876472 -0.032891672 -0.030069321 -0.013626806 -0.08432341 -0.024043128
-0.036236476 0.020514337 0.08929251 -0.08587022 -0.0029467843 0.03140594 0.09231707 0.05483184
0.005221473 0.08188348 -0.03213883 -0.065973915 -0.049949773 0.049940668 -0.017506337 0.012085255
0.0780537 0.023115914 -0.008532073 0.038854405 0.0683028 -0.036712494 0.07520746 0.07978416
0.08439946 0.032066856 -0.078165114 -0.011399611 -0.083579734 -0.03975677 0.067984335 -0.02327417
0.006272968 0.04758519 0.02984237 -0.07863965 0.02965419 -0.03827857 -0.022437587 -0.022041546
-0.07310703 0.0444113 -0.0785403 -0.045626793 -0.06292611 0.01608355 0.014647486 -0.081565015
-0.00930456 -0.02054549 0.035005927 0.05802715 0.061344527 -0.07152698 -0.000470519 0.0024161998
-0.056725625 0.039718013 -0.0012592371 0.097449 0.08028962 0.07234292 0.028245118 0.095523946
-0.016572192 -0.02319747 -0.08747344 -0.07700892 -0.07641535 0.048026267 -0.060130037 0.08030033
-0.0323767 0.027578868 -0.08243151 -0.06706175 -0.046187516 0.07327259 -0.087582044 -0.0436959
0.039969135 -0.024744283 -0.039841052 0.06700635 0.042759396 0.07375414 -0.071479864 0.037279747
-0.059700377 0.0033211953 0.010161597 -0.0896243 0.034736063 -0.04133968 -0.06433128 0.039195884
-0.034124944 0.052734505 -0.07689037 -0.07792531 -0.023077568 -0.039670575 0.01702342 -0.06878586
-0.04237671 0.048306525 -0.06432176 0.011691291 -0.045767676 -0.08065468 0.029122338 -0.06531581
0.082373 -0.036990035 -0.09076885 -0.052055888 -0.08365708 -0.083309 0.040909383 -0.036433443
0.06377878 -0.008643428 -0.0015168696 -0.029955251 -0.027078321 -0.038785897 0.045602296 -0.07963848
-0.002219963 -0.11323029 -0.009856988 0.05962812 0.07048842 0.06724913 -0.06982861 0.025601704
-0.09540112 -0.066962026 0.068939656 0.122237384 -0.0823595 -0.024784189 -0.081977874 -0.04260553
0.04214814 -0.08603103 0.01775724 0.026524037 0.060109813 -0.08821271 -0.10180505 0.06837713
-0.0760475 0.07953656 0.106900305 -0.055341378 -0.03261748 0.060326263 0.026359314 0.065759085
0.012428898 -0.08561021 0.12110698 0.0938952 -0.050186817 -0.004838998 -0.06665748 -0.074664675
-0.088030286 -0.045241933 -0.10086343 -0.020855697 -0.027375855 0.049787376 0.069752865 -0.08149715
-0.013133981 0.09043708 0.055110037 -0.047903568 -0.016360166 -0.072096184 0.028615749 -0.09825081
-0.0459609 0.018466959 0.018775329 -0.07237428 -0.051779717 0.053866096 -0.011233132 0.042784195
-0.080117285 0.0981574 0.025602218 -0.06978709 0.02911742 0.016979905 0.024352856 0.041658416
-0.036481015 -0.028824218 -0.041083407 0.085151434 0.02418546 0.009204777 0.15607125 -0.014621856
-0.0028186194 -0.0038238054 0.03348149 -0.019695733 0.05918857 0.09662734 0.018613825 -0.047874942
-0.07299823 -0.03797099 0.014398451 -0.0044700922 0.05033668 0.040455773 -0.023121864 0.029283097
0.045442708 0.030103656 -0.057834066 -0.075875394 0.060401056 -0.059635855 0.021699945 0.057583265
0.021935744 -0.07382441 0.07620224 0.052255444 0.0809819 0.1052574 0.009203852 0.081586145
0.040163707 -0.053306963 0.08707414 -0.048602168 0.05838069 0.034378473 0.019813444 0.055298492
00000000: ae26 04bd 96f2 223d 46b3 70bd 6bb9 06bd
00000010: f053 f6bc f842 5fbc c1b1 acbd 18f6 c4bc
00000020: b36c 14bd af0d a83c fede b63d badc afbd
00000030: d61e 41bb 84a3 003d bb10 bd3d 5a97 603d
00000040: e418 ab3b 87b2 a73d 01a4 03bd 551d 87bd
00000050: 2298 4cbd 968e 4c3d 7369 8fbc 3c01 463c
00000060: 9eda 9f3d 965d bd3c 1cca 0bbc cc25 1f3d
00000070: 57e2 8b3d d75f 16bd 5e06 9a3d e165 a33d
00000080: a0d9 ac3d 8958 033d 0815 a0bd 6fc5 3abc
00000090: da2b abbd ffd7 22bd 5f3b 8b3d 79a9 bebc
000000a0: 788d cd3b b0e8 423d fc77 f43c d30d a1bd
000000b0: 58ed f23c fdc9 1cbd 08cf b7bc 7990 b4bc
000000c0: 23b9 95bd a0e8 353d bdd9 a0bd 29e3 3abd
000000d0: 68df 80bd a6c1 833c 02fc 6f3c 8f0b a7bd
000000e0: 2772 18bc 044f a8bc 6062 0f3d e0ad 6d3d
000000f0: 6644 7b3d bd7c 92bd feaf f6b9 1b59 1e3b
00000100: 2159 68bd 5baf 223d fc0c a5ba 5793 c73d
00000110: e26e a43d 8628 943d 4e62 e73c 0fa2 c33d
00000120: 68c2 87bc 9f08 bebc 4625 b3bd dab6 9dbd
00000130: a77f 9cbd 31b7 443d ea4a 76bd 8074 a43d
00000140: 6e9d 04bd 14ed e13c dad1 a8bd ac57 89bd
00000150: 1f2f 3dbd f10f 963d 375e b3bd 79fa 32bd
00000160: adb6 233d 86b4 cabc 5f30 23bd a03a 893d
00000170: 7a24 2f3d 690c 973d 0964 92bd a6b2 183d
00000180: 6288 74bd 69a8 593b d47c 263c f28c b7bd
00000190: 6747 0e3d cc53 29bd 1ec0 83bd dd8b 203d
000001a0: 99c6 0bbd 2300 583d b378 9dbd 4e97 9fbd
000001b0: 2b0d bdbc 9d7d 22bd b374 8b3c 9adf 8cbd
000001c0: 3393 2dbd 10dd 453d 20bb 83bd d48c 3f3c
000001d0: e376 3bbd 482e a5bd f891 ee3c 4cc4 85bd
000001e0: 2db3 a83d dd82 17bd 05e5 b9bd 8e38 55bd
000001f0: 6754 abbd e99d aabd 9990 273d 3c3b 15bd
00000200: 739e 823d 2a9d 0dbc b3d1 c6ba b764 f5bc
00000210: 5bd3 ddbc f6dd 1ebd 79c9 3a3d 8019 a3bd
00000220: cc7c 11bb 48e5 e7bd 347f 21bc 9e3c 743d
00000230: 3c5c 903d e9b9 893d 4d02 8fbd aaba d13c
00000240: aa61 c3bd 6323 89bd 3c30 8d3d 9857 fa3d
00000250: 19ac a8bd 3608 cbbc 04e4 a7bd 2383 2ebd
00000260: 87a3 2c3d 0931 b0bd a277 913c f048 d93c
00000270: b535 763d dea8 b4bd 2b7f d0bd 4f09 8c3d
00000280: cbbe 9bbd 10e4 a23d 8cee da3d a4ad 62bd
00000290: e899 05bd ac18 773d 7def d73c b3ac 863d
000002a0: 94a2 4b3c 6854 afbd f006 f83d 204c c03d
000002b0: b190 4dbd 7590 9ebb b883 88bd cbe9 98bd
000002c0: 3949 b4bd 9b4f 39bd 7c91 cebd 91d9 aabc
000002d0: 5443 e0bc d9ed 4b3d 97da 8e3d fae7 a6bd
000002e0: e92f 57bc 1337 b93d 10bb 613d 8836 44bd
000002f0: c105 86bc 2aa7 93bd 936b ea3c b837 c9bd
00000300: 7f41 3cbd 0548 973c b8ce 993c f738 94bd
00000310: f816 54bd b2a2 5c3d 2c0b 38bc 7b3e 2f3d
00000320: 8814 a4bd bf06 c93d bebb d13c 89ec 8ebd
00000330: a887 ee3c 7119 8b3c a47f c73c 04a2 2a3d
00000340: 1e6d 15bd c420 ecbc 1347 28bd e063 ae3d
00000350: 9620 c63c a2cf 163c 24d1 1f3e 8290 6fbc
00000360: 96b8 38bb cf98 7abb e323 093d f258 a1bc
00000370: b76f 723d 8ee4 c53d 057c 983c 8418 44bd
00000380: 1980 95bd 7887 1bbd 7be7 6b3c da79 92bb
00000390: d62d 4e3d f4b4 253d 106a bdbc 1be3 ef3c
000003a0: 2222 3a3d f19b f63c 6ae3 6cbd 8f64 9bbd
000003b0: 1967 773d ba44 74bd 15c4 b13c 6edc 6b3d
000003c0: 97b2 b33c 4131 97bd ec0f 9c3d ce09 563d
000003d0: d7d9 a53d 3191 d73d c1cb 163c a316 a73d
000003e0: b382 243d 6758 5abd ed53 b23d 1113 47bd
000003f0: 9720 6f3d 71d0 0c3d ce4f a23c ac80 623d

bias f4 [128]
-0.028227312 0.0021375052 -0.05160754 -0.065090835 -0.030949045 0.06763543 -0.034923438 0.02684399
-0.042976536 0.07474729 -0.057104312 0.059738677 -0.030450245 0.056784723 0.058446173 -0.02926973
-0.02746138 0.08217253 -0.052247792 -0.036679573 -0.026220342 -0.007519128 -0.04647445 0.021765817
0.05920228 -0.07075692 -0.07578317 0.071735166 -0.0118574975 -0.046642896 -0.08233741 -0.04110235
0.036740966 -0.07791705 0.0468358 0.00030050182 0.008109166 -0.032208852 0.028836207 -0.009908056
-0.020711321 0.08747375 0.007117523 -0.0720825 0.0050383476 0.071473025 0.0076844958 -0.012947665
0.01600638 -0.04630463 -0.03210181 0.051550608 0.05301154 -0.023848988 0.08036082 0.070788965
-0.08677751 0.053341527 0.04328413 0.009779197 0.026601253 -0.07741082 0.009534424 -0.08271889
0.044975787 0.01376069 0.01378943 0.031003391 -0.003450799 -0.07617161 0.00029773513 0.011408277
-0.053701818 -0.03082232 0.048919037 0.031946342 -0.0741113 0.018390222 -0.01564647 0.040670555
-0.058463488 -0.066750996 -0.036050364 0.06397584 0.020781351 0.08452573 0.021325096 0.087990604
0.031195702 0.0068647335 0.048180554 0.05894604 0.07272751 0.06497701 0.017403398 -0.07895
-0.043599106 0.071891256 -0.062049992 0.043621503 -0.027810732 0.0048330706 0.017376326 0.011491649
0.073260225 -0.025534859 0.0020494354 -0.0697504 0.08594221 0.008980041 -0.03980998 0.008241252
-0.053344987 0.07897562 0.054566942 -0.07726397 0.051040504 -0.035822786 -0.057543274 0.0713216
0.02043362 0.01674283 -0.015334113 0.06121067 -0.05904531 0.057274066 -0.037093844 -0.051058438
00000000: f73c e7bc 6315 0c3b 6e62 53bd 584e 85bd
00000010: da88 fdbc 7284 8a3d e10b 0fbd ede7 db3c
00000020: 2a08 30bd 1b15 993d 36e6 69bd 8bb0 743d
00000030: cb72 f9bc 1997 683d 4165 6f3d 13c7 efbc
00000040: b0f6 e0bc 124a a83d c801 56bd 523d 16bd
00000050: 0bcc d6bc 0463 f6bb fe5b 3ebd 3a4e b23c
00000060: 177e 723d 01e9 90bd 3534 9bbd e3e9 923d
00000070: f345 42bc 9f0c 3fbd 84a0 a8bd f05a 28bd
00000080: b27d 163d f992 9fbd e5d6 3f3d ac8c 9d39
00000090: 4fdc 043c 6eed 03bd e939 ec3c 6655 22bc
000000a0: caaa a9bc 7025 b33d 1c3a e93b fd9f 93bd
000000b0: b918 a53b 7360 923d 39ce fb3b 7122 54bc
000000c0: d01f 833c eca9 3dbd 307d 03bd bb26 533d
000000d0: a122 593d f45e c3bc 3794 a43d cef9 903d
000000e0: 68b8 b1bd a57c 5a3d b34a 313d ed38 203c
000000f0: dfea d93c 9089 9ebd 4636 1c3c 8568 a9bd
00000100: 8838 383d 8474 613c 10ed 613c d3fa fd3c
00000110: cd26 62bb dcff 9bbd 5519 9c39 c8e9 3a3c
00000120: 70f6 5bbd 177f fcbc 545f 483d 2bda 023d
00000130: aac7 97bd 17a7 963c 072d 80bc 2b96 263d
00000140: 6977 6fbd bfb4 88bd 8ca9 13bd c405 833d
00000150: a73d aa3c d31b ad3d f8b1 ae3c 6b34 b43d
00000160: 218e ff3c 8ff1 e03b f958 453d 6771 713d
00000170: 29f2 943d ab12 853d 9291 8e3c 8ab0 a1bd
00000180: fa94 32bd b93b 933d 2228 7ebd 76ac 323d
00000190: 55d3 e3bc bc5e 9e3b cc58 8e3c 7847 3c3c
000001a0: 7509 963d 7b2e d1bc d24f 063b 4cd9 8ebd
000001b0: 7802 b03d 0621 133c ca0f 23bd 5106 073c
000001c0: 4680 5abd f8bd a13d 9681 5f3d 933c 9ebd
000001d0: d90f 513d eaba 12bd 7fb2 6bbd 0f11 923d
000001e0: 6864 a73c 4228 893c ee3b 7bbc 0ab8 7a3d
000001f0: 7fd9 71bd 3698 6a3d b7ef 17bd a722 51bd

weight f4 [128, 128]
0.06785774 0.012554021 0.010709614 0.06496291 -0.07302454 0.0317553 0.07633828 0.005261723
0.027797317 -0.037968513 0.013247052 -0.055302758 -0.030319784 -0.007812146 0.027096765 0.018529719
0.065705955 -0.045713853 0.0012288863 0.013812567 0.06873819 -0.019904912 -0.021222694 0.01857452
0.08349881 -0.036783934 -0.0031067783 -0.023599213 0.044008944 0.05497024 0.066531606 0.08167907
0.018236397 0.023353491 -0.08481726 0.030410437 -0.018310474 -0.09645681 0.059471343 -0.03546024
-0.07136293 -0.08129084 -0.093065985 0.06345392 -0.059696324 -0.03850135 0.09077014 -0.048450638
0.059465956 0.0003292469 -0.062042106 -0.027988821 0.0237172 -0.013792578 0.046712883 0.063352525
0.102240525 -0.055545755 -0.07984441 -0.051002428 0.05975793 -0.08071865 0.056936845 0.028728085
-0.021130145 -0.039375905 -0.07151864 0.029807098 -0.08706343 -0.03118471 0.117438294 0.044829022
-0.016174894 0.017480593 0.08164815 0.025206149 0.050631765 0.084759355 0.025224818 -0.033975363
0.037712518 0.08219609 -0.004669803 0.04571395 -0.082804285 -0.020561768 0.068402015 -0.06921985
0.04818245 0.021629125 -0.038295217 -0.08339854 -0.0838532 0.039882902 -0.045140542 0.05557516
0.057843648 0.015987847 -0.08042489 0.1026253 0.014001253 0.04109287 0.009750071 0.013236448
0.022439843 -0.0117077725 0.003108644 0.030220719 0.08093442 -0.07061673 -0.028571751 -0.015980624
-0.041542146 -0.02592176 -0.023704343 -0.037423655 0.03804701 -0.05690285 0.065466724 0.08682894
-0.04518805 -0.08124105 0.035441585 -0.049639765 0.057891537 -0.06695064 -0.07188334 -0.052874345
0.059073616 0.041986056 -2.5138806e-05 0.046661653 -0.008973154 -0.08284056 0.06663293 -0.040273935
-0.07128889 -0.062332932 0.019707272 0.03566467 0.03582791 0.018381024 0.07973782 0.05171936
0.034993492 0.010741928 0.05813036 0.03621828 0.00034789732 0.05637347 0.07927225 0.0029274037
0.039419565 -0.024831224 -0.08947195 0.13890058 -0.060796466 0.11007877 -0.05687572 0.036294468
0.018861903 0.10576399 0.025165658 -0.08210825 0.0674001 -0.0540248 0.05534524 -0.07160655
0.021256046 -0.038485907 0.042637024 -0.013965851 0.044600178 -0.074153036 -0.061721276 -0.010604309
0.019145092 0.06585434 -0.03262213 0.060955107 0.105523854 -0.05895111 -0.023374343 0.088056825
0.09439237 -0.010813204 0.061418843 0.02628663 -0.06616088 -0.055435747 0.046523556 0.045800827
0.0016996652 0.108923204 -0.0007021656 -0.031419612 0.058345336 0.077380866 -0.040100813 -0.09677067
0.024641937 0.033364195 0.061394706 -0.036504388 0.09453742 0.05105854 0.08640499 0.021977922
0.021740662 0.07033965 0.027876731 0.04712868 0.03976505 -0.03782871 0.055915114 0.021410901
-0.023138816 0.06787462 -0.07385718 0.053476706 0.050867837 0.0051996284 -0.026077906 0.00687804
0.03829208 -0.03794205 0.043426085 -0.001526668 -0.044199813 -0.104277186 0.02807295 -0.03397601
-0.021984953 0.10104615 -0.002725933 -0.02992344 0.0888663 -0.09576464 0.0027010483 -0.07081377
-0.001715274 0.048385017 0.005086077 -0.07187124 0.11105405 0.019785443 0.07680142 -0.040647548
0.08763407 -0.025848694 -0.024892345 0.08245382 0.017880868 0.08215259 -0.04554566 0.11727106
00000000: 00f9 8a3d 61af 4d3c 6077 2f3c 460b 853d
00000010: e48d 95bd d811 023d 3f57 9c3d 886a ac3b
00000020: 33b7 e33c df84 1bbd 2a0a 593c 2585 62bd
00000030: 3261 f8bc 08fd ffbb 09fa dd3c a3cb 973c
00000040: d890 863d 733e 3bbd 9512 a13a 1b4e 623c
00000050: 9cc6 8c3d a00f a3bc 37db adbc 9729 983c
00000060: 6d01 ab3d c0aa 16bd 179b 4bbb 2353 c1bc
00000070: b942 343d 7928 613d b941 883d 5b47 a73d
00000080: 7f64 953c d24f bf3c acb4 adbd 4f1f f93c
00000090: d9ff 95bc 268b c5bd 3998 733d c23e 11bd
000000a0: ba26 92bd d07b a6bd 6199 bebd 21f4 813d
000000b0: 2284 74bd 97b3 1dbd b2e5 b93d 2d74 46bd
000000c0: 9392 733d c59e ac39 dd1f 7ebd d048 e5bc
000000d0: 934a c23c 44fa 61bc 0256 3f3d f8be 813d
000000e0: 7b63 d13d f283 63bd 7785 a3bd ece7 50bd
000000f0: bbc4 743d d24f a5bd 9c36 693d 2957 eb3c
00000100: 2019 adbc a148 21bd 5d78 92bd 042e f43c
00000110: 504e b2bd 1477 ffbc 7d83 f03d a39e 373d
00000120: 3681 84bc 7633 8f3c 2537 a73d 207d ce3c
00000130: 4163 4f3d 5096 ad3d 47a4 ce3c c029 0bbd
00000140: 7178 1a3d 6c56 a83d 2605 99bb 8d3e 3b3d
00000150: 4b95 a9bd 2771 a8bc 5b16 8c3d 23c3 8dbd
00000160: f65a 453d 902f b13c 72db 1cbd dbcc aabd
00000170: 3abb abbd 415c 233d 4ae5 38bd c7a2 633d
00000180: 76ed 6c3d f2f8 823c ceb5 a4bd 372d d23d
00000190: 8365 653c ff50 283d c3be 1f3c b0dd 583c
000001a0: c3d3 b73c f5d1 3fbc 64ba 4b3b 7191 f73c
000001b0: f2c0 a53d 819f 90bd 4e0f eabc cce9 82bc
000001c0: 1928 2abd df59 d4bc 9c2f c2bc 8c49 19bd
000001d0: 2ed7 1b3d f612 69bd 6b13 863d 5fd3 b13d
000001e0: 1b17 39bd b561 a6bd 322b 113d 1153 4bbd
000001f0: ad1f 6d3d 6b1d 89bd 9337 93bd c592 58bd
00000200: 2df7 713d 92f9 2b3d 2de1 d2b7 4a20 3f3d
00000210: 2304 13bc 50a8 a9bd d876 883d 48f6 24bd
00000220: e9ff 91bd d150 7fbd 2571 a13c 1e15 123d
00000230: 49c0 123d cd93 963c 954d a33d aed7 533d
00000240: 5655 0f3d e9fe 2f3c 1a1a 6e3d 9f59 143d
00000250: fd65 b639 dee7 663d 7d59 a23d afd9 3f3b
00000260: 6976 213d da6a cbbc 123d b7bd f43b 0e3e
00000270: b705 79bd fa70 e13d 84f6 68bd 82a9 143d
00000280: 4784 9a3c ca9a d83d 3628 ce3c 5f28 a8bd
00000290: 1009 8a3d 1c49 5dbd b1b1 623d 74a6 92bd
000002a0: 2921 ae3c 66a3 1dbd 29a4 2e3d 06d1 64bc
000002b0: adae 363d 8cdd 97bd 73cf 7cbd b2bd 2dbc
000002c0: 2bd6 9c3c a4de 863d c89e 05bd 10ac 793d
000002d0: e41c d83d b876 71bd 8d7b bfbc 2357 b43d
000002e0: c950 c13d dd29 31bc 5392 7b3d 0f57 d73c
000002f0: 5b7f 87bd 9810 63bd 7c8f 3e3d a699 3b3d
00000300: 4dc7 de3a 2113 df3d 8911 38ba dab1 00bd
00000310: 85fb 6e3d dc79 9e3d c040 24bd b32f c6bd
00000320: e3dd c93c e5a8 083d 0479 7b3d a085 15bd
00000330: d69c c13d c222 513d 19f5 b03d 0b0b b43c
00000340: 7919 b23c 3c0e 903d be5d e43c 010a 413d
00000350: ade0 223d 47f2 1abd 3f07 653d ea65 af3c
00000360: 9d8d bdbc d901 8b3d 6f42 97bd 640a 5b3d
00000370: cb5a 503d a561 aa3b 55a1 d5bc 2e61 e13b
00000380: 28d8 1c3d 1f69 1bbd 8ddf 313d 7a1a c8ba
00000390: dd0a 35bd 478f d5bd 3ef9 e53c 6e2a 0bbd
000003a0: ca19 b4bc 49f1 ce3d 91a5 32bb 0122 f5bc
000003b0: 89ff b53d 4020 c4bd 1204 313b cf06 91bd
000003c0: 0bd3 e0ba 5e2f 463d 1ba9 a63b 3b31 93bd
000003d0: 4e70 e33d 1515 a23c 104a 9d3d 0b7e 26bd
000003e0: 7e79 b33d a4c0 d3bc 08eb cbbc 8cdd a83d
000003f0: e67a 923c 9e3f a83d 168e 3abd cf2b f03d

bias f4 [128]
-0.077245586 -0.047586787 0.048168052 0.041217647 0.034050483 -0.037482787 -0.03248763 0.058983237
0.051866937 0.08753265 -0.06437319 0.063239105 -0.04656102 0.07303675 -0.024428733 0.03353909
0.0026130334 0.01583449 0.075362615 -0.057373006 0.07062181 0.0103583075 0.06728601 -0.030403977
-0.0084448485 -0.07747911 0.048379656 0.07113809 -0.02314902 0.07206117 0.08087009 -0.064880475
0.0023553947 0.019364834 0.0340918 0.08799838 0.016734412 0.045759503 0.07983877 0.00299523
0.040773496 0.05877212 -0.07595282 0.015682753 -0.067573085 -0.030105025 0.03011764 -0.038144656
0.0026902054 0.041403297 0.06957748 -0.03345601 0.053375043 0.085261606 0.04288826 0.048255693
-0.009776241 -0.064521514 0.008742856 0.0265942 0.01977717 0.07653262 0.027266322 0.04633071
0.022381008 -0.08209951 0.024751704 0.08815573 0.06705416 -0.048370115 0.041197218 -0.08159931
0.057165124 0.058073785 -0.017987028 0.08295757 -0.049460497 -0.07309794 -0.0032704829 0.046742875
0.08024457 -0.015797712 -0.011889475 -0.05023801 0.024687154 -0.05784687 0.049402576 -0.024572304
-0.024411926 0.04837479 0.012461892 -0.018604085 0.03322816 -0.025780948 -0.02877817 -0.028673269
0.05827605 -0.031470988 -0.05720397 0.055119332 0.058245804 -0.085199796 0.0130987745 -0.054080937
0.06874064 0.0031529623 0.012752238 0.006823468 0.047436252 0.015392424 0.0045165815 -0.040231682
0.0061118663 0.03250603 -0.025214052 -0.05013279 -0.008717 -0.028409153 0.07636385 0.04634697
0.028297504 -0.0773363 0.030287284 -0.04419559 0.024249846 0.034403335 0.035858348 -0.07645103
00000000: ef32 9ebd 5dea 42bd dd4b 453d d6d3 283d
00000010: 8578 0b3d 8d87 19bd c011 05bd 6898 713d
00000020: 6d72 543d 5144 b33d 17d6 83bd 8183 813d
00000030: c5b6 3ebd 4b94 953d c41e c8bc 4960 093d
00000040: 6d3f 2b3b 55b7 813c b757 9a3d f5ff 6abd
00000050: 2ba2 903d e4b5 293c 3fcd 893d c311 f9bc
00000060: 435c 0abc 5ead 9ebd bf29 463d d9b0 913d
00000070: 03a3 bdbc cf94 933d 389f a53d 0ee0 84bd
00000080: f75c 1a3b 00a3 9e3c d8a3 0b3d 7f38 b43d
00000090: 9b16 893c 516e 3b3d 8282 a33d 9f4b 443b
000000a0: 1c02 273d 09bb 703d 278d 9bbd 1e79 803c
000000b0: c263 8abd d09e f6bc 45b9 f63c 923d 1cbd
000000c0: 284e 303b 8196 293d a37e 8e3d 2b09 09bd
000000d0: ca9f 5a3d a39d ae3d 9aab 2f3d c3a7 453d
000000e0: 872c 20bc db23 84bd 323e 0f3c 14dc d93c
000000f0: bb03 a23c 22bd 9c3d 9f5d df3c 45c5 3d3d
00000100: 6058 b73c ca23 a8bd 16c4 ca3c fe8a b43d
00000110: b153 893d be1f 46bd 6abe 283d 8a1d a7bd
00000120: fa25 6a3d c7de 6d3d 8859 93bc a9e5 a93d
00000130: 1797 4abd 5fb4 95bd 9955 56bb 7575 3f3d
00000140: 4457 a43d 346a 81bc 13cc 42bc 5fc6 4dbd
00000150: b73c ca3c d7f0 6cbd 5b5a 4a3d db4b c9bc
00000160: 85fb c7bc a524 463d f72c 4c3c 9867 98bc
00000170: 401a 083d 9132 d3bc 32c0 ebbc 34e4 eabc
00000180: deb2 6e3d b9e7 00bd b64e 6abd cfc4 613d
00000190: 2793 6e3d 3b7d aebd 3e9c 563c f983 5dbd
000001a0: e5c7 8c3d eea1 4e3b c3ee 503c 6697 df3b
000001b0: 844c 423d 8130 7c3c d5ff 933b fac9 24bd
000001c0: 0d46 c83b 0b25 053d b38d cebc 0a58 4dbd
000001d0: bfd1 0ebc 50ba e8bc a664 9c3d 52d6 3d3d
000001e0: 2bd0 e73c 7e62 9ebd 0a1d f83c 6f06 35bd
000001f0: 9da7 c63c 83ea 0c3d 34e0 123d 5c92 9cbd

weight f4 [28, 128]
0.05437524 -0.032904714 -0.01700825 -0.0042736 -0.080302104 0.036462173 -0.094958104 -0.123034626
0.007812442 0.05926156 0.07050361 -0.08687773 0.03468076 0.029098429 -0.064435005 0.046698313
0.008029378 -0.04940281 0.05193482 -0.10009174 -0.038579606 0.11170506 -0.0821662 0.029380964
0.081948966 0.052719522 0.014132245 0.05800277 -0.10768553 -0.13761345 -0.025436044 0.029931536
-0.10537983 -0.06850928 -0.03562729 0.01630045 0.12600319 -0.0034279034 0.053828374 -0.063209936
0.028770616 0.06161442 0.03947625 -0.033272985 -0.058541805 -0.048280507 -0.13197114 0.13731726
-0.055032257 0.074425556 0.05408986 0.08086636 -0.02533864 0.007284851 0.004723153 -0.07443959
-0.033548422 -0.036576945 -0.078191385 0.03114636 -0.0009368563 -0.094777845 -0.022109952 0.063208215
-0.08595317 -0.039878335 0.013375672 0.07656054 -0.031469155 0.07118858 0.098940454 -0.060216643
-0.095551655 -0.07379915 -0.0123483725 -0.027043097 -0.07241207 -0.0010971897 0.016670529 0.033326477
0.059688024 0.050369572 -0.022876836 -0.084619604 -0.023278164 -0.08600208 -0.05723346 0.002127907
0.08621566 -0.13951269 -0.0074240565 0.0013111077 -0.08886978 -0.06473994 0.034670018 -0.070994385
-0.022826128 -0.044357363 -0.060377233 -0.10190508 -0.10388477 -0.023729766 -0.010335831 -0.10385356
-0.073503576 0.05489155 -0.075667724 -0.10536517 0.037274886 0.018857053 -0.023251906 0.1150273
0.12566637 0.10828188 0.03061465 -0.09442587 0.017724449 -0.037972372 -0.11339069 -0.036202017
-0.021827921 0.016714713 -0.07526733 0.08145644 0.043190736 0.07869388 -0.049166076 0.026300656
-0.029619506 -0.103599116 -0.04501991 0.0010629367 0.015929816 -0.09277603 0.07546572 -0.107597224
0.05506187 -0.07896473 -0.064569525 -0.028243918 -0.07241073 0.02500174 0.03628152 0.040283326
-0.09992124 0.01845566 -0.14145118 0.058692627 -0.018858563 -0.10457633 0.012295686 -0.023955185
-0.04863807 -0.017066542 0.046713077 -0.03816662 -0.008708564 0.07510681 0.07781065 -0.025473552
-0.101701245 0.08001741 0.13223307 0.04778808 -0.08827444 0.007789317 -0.10487792 -0.07161268
-0.022957053 -0.08336457 0.059169218 -0.08128237 0.05462895 -0.07236114 0.100326695 0.03171843
-0.010653287 0.017956415 0.040061317 -0.009980116 0.04557628 -0.05837403 0.033743124 -0.03705197
-0.052632615 -0.08465888 0.040363032 0.024897626 0.03468123 -0.011482334 -0.021974714 -0.0156263
-0.05599509 0.06467577 0.012874162 -0.04382191 0.07344949 -0.052482545 0.008063278 -0.0009828327
0.064056665 -0.07925601 -0.08709511 -0.018376844 -0.10310434 -0.058034606 -0.08511557 -0.060685195
-0.039793372 0.01225253 -0.043276098 0.07449913 -0.068092056 -0.07177146 0.055143986 -0.08827501
-0.044818133 0.06003479 0.019069199 -0.041611515 0.035305742 -0.016478607 0.07828117 0.051546134
0.049588185 -0.1028181 0.047648404 0.026348947 0.048277356 -0.049769193 0.0141226305 0.041426048
-0.07677532 -0.094439164 0.0007036368 -0.03221796 -0.039977707 -0.030001836 -0.014809049 -0.07497526
-0.04028165 -0.023168473 -0.048760634 0.10582653 0.018747661 -0.022646774 -0.04514416 -0.02302443
-0.015061618 0.060996607 -0.04607777 -0.046014287 -0.07752391 -0.08713079 0.05543102 0.023728097
00000000: 92b8 5e3d 18c7 06bd e354 8bbc 8e09 8cbb
00000010: 6e75 a4bd 5c59 153d 6579 c2bd 94f9 fbbd
00000020: 83ff ff3b 40bc 723d 3264 903d f4ec b1bd
00000030: 6a0d 0e3d d45f ee3c 80f6 83bd bb46 3f3d
00000040: a78d 033c 9a5a 4abd 9bb9 543d e6fc ccbd
00000050: a605 1ebd 9fc5 e43d c146 a8bd 59b0 f03c
00000060: dcd4 a73d 6df0 573d ef8a 673c 5094 6d3d
00000070: 3b8a dcbd 8aea 0cbe 405f d0bc fb32 f53c
00000080: 61d1 d7bd 984e 8cbd eced 11bd 8588 853c
00000090: fb06 013e ada6 60bb 247b 5c3d 3674 81bd
000000a0: 5bb0 eb3c 675f 7c3d d9b1 213d 4149 08bd
000000b0: 88c9 6fbd c8c1 45bd 7123 07be e59c 0c3e
000000c0: 8169 61bd 6d6c 983d 548d 5d3d 439d a53d
000000d0: fb92 cfbc c2b5 ee3b aec4 9a3b c973 98bd
000000e0: 126a 09bd b5d1 15bd ce22 a0bd a726 ff3c
000000f0: 5d97 75ba e31a c2bd ee1f b5bc 4f73 813d
00000100: 3708 b0bd 7757 23bd a225 5b3c c6cb 9c3d
00000110: cde5 00bd 51cb 913d 4ba1 ca3d baa5 76bd
00000120: 96b0 c3bd 0224 97bd d450 4abc 7c89 ddbc
00000130: c84c 94bd 94cf 8fba a290 883c 5881 083d
00000140: 6e7b 743d 5350 4e3d 3468 bbbc 0b4d adbd
00000150: d9b1 bebc dc21 b0bd a26d 6abd 5b74 0b3b
00000160: d691 b03d 6adc 0ebe 8045 f3bb 79d9 ab3a
00000170: 5c01 b6bd 6096 84bd 2602 0e3d 8165 91bd
00000180: dcfd babc 11b0 35bd 1e4e 77bd 9cb3 d0bd
00000190: 8ac1 d4bd ed64 c2bc 9e57 29bc 2db1 d4bd
000001a0: 0b89 96bd f6d5 603d aef7 9abd b2c9 d7bd
000001b0: 8dad 183d 1b7a 9a3c c87a bebc 6f93 eb3d
000001c0: afae 003e e4c2 dd3d 93cb fa3c 5a62 c1bd
000001d0: dd32 913c eb88 1bbd 6139 e8bd 9148 14bd
000001e0: 78d0 b2bc 4bed 883c c225 9abd a2d2 a63d
000001f0: c5e8 303d 422a a13d 5e62 49bd 7974 d73c
00000200: 9ba4 f2bc c62b d4bd cc66 38bd 3d52 8b3a
00000210: 3f7f 823c 5c01 bebd c58d 9a3d ef5b dcbd
00000220: 8e88 613d 43b8 a1bd 073d 84bd ca5f e7bc
00000230: 144c 94bd 73d0 cc3c ee9b 143d 2100 253d
00000240: 82a3 ccbd 5330 973c 94d8 10be ae67 703d
00000250: 467d 9abc 1d2c d6bd d873 493c aa3d c4bc
00000260: b638 47bd 22cf 8bbc 3656 3f3d 9a54 1cbd
00000270: 5dae 0ebc 99d1 993d 315b 9f3d e9ad d0bc
00000280: be48 d0bd 2be0 a33d 1b68 073e 6fbd 433d
00000290: 3bc9 b4bd 873d ff3b 3cca d6bd aba9 92bd
000002a0: 6e10 bcbc 0bbb aabd 6c5b 723d 5f77 a6bd
000002b0: 9bc2 5f3d 1432 94bd 1578 cd3d 2feb 013d
000002c0: 208b 2ebc 5519 933c 5617 243d a483 23bc
000002d0: 32ae 3a3d 9b19 6fbd 3b36 0a3d cec3 17bd
000002e0: 4c95 57bd a361 adbd b553 253d 1bf6 cb3c
000002f0: e80d 0e3d 6620 3cbc 5104 b4bc ba02 80bc
00000300: 1c5b 65bd bb74 843d 26ee 523c 9a7e 33bd
00000310: b06c 963d f0f7 56bd d71b 043c 65d2 80ba
00000320: 2430 833d fa50 a2bd ec5e b2bd 098b 96bc
00000330: 5e28 d3bd b2b5 6dbd 1251 aebd 0a91 78bd
00000340: 60fe 22bd d6be 483c 4742 31bd 0093 983d
00000350: d973 8bbd eafc 92bd a9de 613d 87c9 b4bd
00000360: 3893 37bd 0ae7 753d 0237 9c3c d670 2abd
00000370: c19c 103d 25fe 86bc e151 a03d 0a22 533d
00000380: fb1c 4b3d 4c92 d2bd f92a 433d bfd9 d73c
00000390: 7abe 453d c8da 4bbd 9b62 673c 5cae 293d
000003a0: 613c 9dbd 5269 c1bd 4474 383a fbf6 03bd
000003b0: aabf 23bd 69c6 f5bc a7a1 72bc a18c 99bd
000003c0: 5ffe 24bd cfcb bdbc 3bb9 47bd 94bb d83d
000003d0: b294 993c ba85 b9bc 15e9 38bd bb9d bcbc
000003e0: 01c5 76bc 94d7 793d 0bbc 3cbd 7a79 3cbd
000003f0: dbc4 9ebd a171 b2bd a30b 633d 6d61 c23c

bias f4 [28]
-0.059086896 -0.06773053 0.01563242 -0.031893354 -0.06765987 -0.028524049 -0.010046288 -0.06271197
0.07017001 -0.004378222 0.0536659 0.047635533 -0.028680224 -0.046154 -0.050873246 -0.07253727
-0.044862907 -0.06759586 0.07875227 0.083539136 -0.017969392 -0.0533791 -0.031263888 0.006243348
-0.04969304 -0.060284525 -0.025964282 -0.047198623
00000000: 1a05 72bd 4eb6 8abd 900f 803c 9ba2 02bd
00000010: 4291 8abd 44ab e9bc 3099 24bc 226f 80bd
00000020: 4bb5 8f3d 3077 8fbb c6d0 5b3d 7a1d 433d
00000030: caf2 eabc fa0b 3dbd 7760 50bd 6c8e 94bd
00000040: 2bc2 37bd b36f 8abd df48 a13d 9116 ab3d
00000050: 8c34 93bc 0ba4 5abd 900e 00bd 0095 cc3b
00000060: ee8a 4bbd e8ec 76bd 0cb3 d4bc 5853 41bd
